…
Training data file: /home/trz846/representation_learning/data/uniref50_preprocessed.h5


TRAINING AND MODEL PARAMS:
======================
data :		 /home/trz846/representation_learning/data/uniref50_preprocessed.h5
kernel_size :		 7
stride :		 2
padding :		 3
batch_size :		 100
valid_size :		 100
learning_rate :		 0.0003
num_epochs :		 8
testing :		 False
debug :		 False


Model Summary:
----------------------------------------------------------------
        Layer (type)               Output Shape         Param #
================================================================
            Conv1d-1             [100, 50, 500]           8,800
              ReLU-2             [100, 50, 500]               0
       BatchNorm1d-3             [100, 50, 500]             100
            Conv1d-4             [100, 50, 250]          17,550
              ReLU-5             [100, 50, 250]               0
       BatchNorm1d-6             [100, 50, 250]             100
            Conv1d-7            [100, 100, 250]          35,100
              ReLU-8            [100, 100, 250]               0
       BatchNorm1d-9            [100, 100, 250]             200
           Conv1d-10            [100, 100, 125]          70,100
             ReLU-11            [100, 100, 125]               0
      BatchNorm1d-12            [100, 100, 125]             200
           Conv1d-13             [100, 100, 63]          70,100
             ReLU-14             [100, 100, 63]               0
      BatchNorm1d-15             [100, 100, 63]             200
           Linear-16                 [100, 500]       3,150,500
             ReLU-17                 [100, 500]               0
      BatchNorm1d-18                 [100, 500]           1,000
           Linear-19                [100, 6300]       3,156,300
             ReLU-20                [100, 6300]               0
      BatchNorm1d-21                [100, 6300]          12,600
         Upsample-22            [100, 100, 125]               0
           Conv1d-23            [100, 100, 125]          70,100
             ReLU-24            [100, 100, 125]               0
      BatchNorm1d-25            [100, 100, 125]             200
         Upsample-26            [100, 100, 250]               0
           Conv1d-27            [100, 100, 250]          70,100
             ReLU-28            [100, 100, 250]               0
      BatchNorm1d-29            [100, 100, 250]             200
           Conv1d-30             [100, 50, 250]          35,050
             ReLU-31             [100, 50, 250]               0
      BatchNorm1d-32             [100, 50, 250]             100
         Upsample-33             [100, 50, 500]               0
           Conv1d-34             [100, 50, 500]          17,550
             ReLU-35             [100, 50, 500]               0
      BatchNorm1d-36             [100, 50, 500]             100
           Conv1d-37             [100, 25, 500]           8,775
================================================================
Total params: 6,725,025
Trainable params: 6,725,025
Non-trainable params: 0
----------------------------------------------------------------
Input size (MB): 4.77
Forward/backward pass size (MB): 430.53
Params size (MB): 25.65
Estimated Total Size (MB): 460.95
----------------------------------------------------------------

Training model saved after training on 2806100 sequences.
…
